Stage(inputs[0], outputs[0], declares[0], calculations[0], recompute_ratio[0])
<class 'models.vgg16.gpus=2.Stage'>
shape
{'input0': (32, 3, 224, 224), 'target': (32,), 'out11': (32, 128, 56, 56), 'out41': (32, 10)}
Finished initializing process group; backend: gloo, rank: 1world_size: 2
recv ranks {'out11': [0]}
send ranks {}
models [Stage(
  (layer12): Conv2d(128, 256, kernel_size=(3, 3), stride=(1, 1), padding=(1, 1))
  (layer13): ReLU()
  (layer14): Conv2d(256, 256, kernel_size=(3, 3), stride=(1, 1), padding=(1, 1))
  (layer15): ReLU()
  (layer16): Conv2d(256, 256, kernel_size=(3, 3), stride=(1, 1), padding=(1, 1))
  (layer17): ReLU()
  (layer18): MaxPool2d(kernel_size=2, stride=2, padding=0, dilation=1, ceil_mode=False)
  (layer19): Conv2d(256, 512, kernel_size=(3, 3), stride=(1, 1), padding=(1, 1))
  (layer20): ReLU()
  (layer21): Conv2d(512, 512, kernel_size=(3, 3), stride=(1, 1), padding=(1, 1))
  (layer22): ReLU()
  (layer23): Conv2d(512, 512, kernel_size=(3, 3), stride=(1, 1), padding=(1, 1))
  (layer24): ReLU()
  (layer25): MaxPool2d(kernel_size=2, stride=2, padding=0, dilation=1, ceil_mode=False)
  (layer26): Conv2d(512, 512, kernel_size=(3, 3), stride=(1, 1), padding=(1, 1))
  (layer27): ReLU()
  (layer28): Conv2d(512, 512, kernel_size=(3, 3), stride=(1, 1), padding=(1, 1))
  (layer29): ReLU()
  (layer30): Conv2d(512, 512, kernel_size=(3, 3), stride=(1, 1), padding=(1, 1))
  (layer31): ReLU()
  (layer32): MaxPool2d(kernel_size=2, stride=2, padding=0, dilation=1, ceil_mode=False)
  (layer35): Linear(in_features=25088, out_features=4096, bias=True)
  (layer36): ReLU()
  (layer37): Dropout(p=0.5, inplace=False)
  (layer38): Linear(in_features=4096, out_features=4096, bias=True)
  (layer39): ReLU()
  (layer40): Dropout(p=0.5, inplace=False)
  (layer41): Linear(in_features=4096, out_features=10, bias=True)
), CrossEntropyLoss()]
using cifar10 dataset
Files already downloaded and verified
Files already downloaded and verified
warm0
Epoch: [0][0/1562]	Time: 0.338 (0.338)	Epoch time [hr]: 0.000 (0.147)	Memory: 2.386 (2.422)	Loss: 2.3051 (2.3051)	Prec@1: 9.375 (9.375)	Prec@5: 50.000 (50.000)	Running Time: 11.718
Epoch: [0][10/1562]	Time: 0.133 (0.148)	Epoch time [hr]: 0.000 (0.064)	Memory: 3.510 (4.305)	Loss: 2.2974 (2.3043)	Prec@1: 3.125 (9.943)	Prec@5: 46.875 (50.568)	Running Time: 13.008
…
